…
1

_wandb:
  desc: null
  value:
    cli_version: 0.13.6
    framework: catboost
    is_jupyter_run: true
    is_kaggle_kernel: false
    python_version: 3.10.4
    start_time: 1682294398.339843
    t:
      1:
      - 1
      - 5
      - 7
      - 53
      - 55
      2:
      - 1
      - 5
      - 7
      - 53
      - 55
      3:
      - 2
      - 3
      - 13
      - 23
      4: 3.10.4
      5: 0.13.6
      8:
      - 1
      - 3
      - 5
device:
  desc: null
  value: cuda
gamma:
  desc: null
  value: 0.95
lr:
  desc: null
  value: 0.01
model:
  desc: null
  value: "Sequential(\n  (Linear_0): Linear(in_features=100, out_features=264, bias=True)\n\
    \  (BatchNorm1d_0): BatchNorm1d(264, eps=1e-05, momentum=0.1, affine=True, track_running_stats=True)\n\
    \  (Dropout_0): Dropout(p=0.1, inplace=False)\n  (Relu_0): ReLU()\n  (Linear_1):\
    \ Linear(in_features=264, out_features=132, bias=True)\n  (BatchNorm1d_1): BatchNorm1d(132,\
    \ eps=1e-05, momentum=0.1, affine=True, track_running_stats=True)\n  (Dropout_1):\
    \ Dropout(p=0.1, inplace=False)\n  (Relu_1): ReLU()\n  (Linear_2): Linear(in_features=132,\
    \ out_features=66, bias=True)\n  (BatchNorm1d_2): BatchNorm1d(66, eps=1e-05, momentum=0.1,\
    \ affine=True, track_running_stats=True)\n  (Dropout_2): Dropout(p=0.1, inplace=False)\n\
    \  (Relu_2): ReLU()\n  (Linear_3): Linear(in_features=66, out_features=33, bias=True)\n\
    \  (BatchNorm1d_3): BatchNorm1d(33, eps=1e-05, momentum=0.1, affine=True, track_running_stats=True)\n\
    \  (Dropout_3): Dropout(p=0.1, inplace=False)\n  (Relu_3): ReLU()\n  (Linear_4):\
    \ Linear(in_features=33, out_features=16, bias=True)\n  (BatchNorm1d_4): BatchNorm1d(16,\
    \ eps=1e-05, momentum=0.1, affine=True, track_running_stats=True)\n  (Dropout_4):\
    \ Dropout(p=0.1, inplace=False)\n  (Relu_4): ReLU()\n  (Linear_5): Linear(in_features=16,\
    \ out_features=8, bias=True)\n  (BatchNorm1d_5): BatchNorm1d(8, eps=1e-05, momentum=0.1,\
    \ affine=True, track_running_stats=True)\n  (Dropout_5): Dropout(p=0.1, inplace=False)\n\
    \  (Relu_5): ReLU()\n  (Linear_6): Linear(in_features=8, out_features=4, bias=True)\n\
    \  (BatchNorm1d_6): BatchNorm1d(4, eps=1e-05, momentum=0.1, affine=True, track_running_stats=True)\n\
    \  (Dropout_6): Dropout(p=0.1, inplace=False)\n  (Relu_6): ReLU()\n  (Linear_7):\
    \ Linear(in_features=4, out_features=2, bias=True)\n)"
weight_decay:
  desc: null
  value: 0.001
